guidance_model.tflite (tflite, 7476 bytes, 6 tensors)

arith.constant f4 [32]
0	0x3e4aac4e	0.19792292
1	0x3e546c88	0.20744526
2	0xbd0b5486	-0.034016155
3	0x3e672b06	0.22575006
4	0x3e265266	0.1624237
5	0x3e82eb6b	0.25570235
6	0x00000000	0.0
7	0x3e082603	0.1329575
8	0x3e1fdb7d	0.15611072
9	0x3e0dd9ef	0.13852666
10	0x3e0d392c	0.1379134
11	0x00000000	0.0
12	0x00000000	0.0
13	0xbd2b3e1e	-0.041807286
14	0x00000000	0.0
15	0xbccd5a21	-0.02506739
16	0xbc4926dd	-0.012277332
17	0xbc2bb15c	-0.0104792975
18	0xbd286991	-0.0411163
19	0xbc46bed9	-0.012130463
20	0x3e4a8e01	0.19780733
21	0x3e6f9dd8	0.23400056
22	0xbd16eb21	-0.03684533
23	0x00000000	0.0
24	0x00000000	0.0
25	0x3e1a600d	0.15075703
26	0x00000000	0.0
27	0xbba79a83	-0.005114855
28	0xbcb56df9	-0.022147166
29	0xbcd32da0	-0.025778592
30	0x3e245c74	0.16050893
31	0x3e2c26d5	0.16811688

arith.constant1 f4 [4]
0	0xbdebe27c	-0.11517808
1	0xbe002826	-0.12515315
2	0xbde16f81	-0.11007596
3	0x3df023b1	0.117255576

arith.constant2 f4 [4, 32]
0	0xbf011e00	-0.504364
1	0xbdeb18c3	-0.11479332
2	0xbe7fd144	-0.24982172
3	0xbe49c415	-0.19703706
4	0x3d17fe5d	0.037107814
5	0xbf25cafe	-0.64762866
6	0x3c52c500	0.012864351
7	0xbec8e338	-0.39235854
8	0xbecdf233	-0.40223846
9	0xbe34a1ea	-0.1763989
10	0xbf1607a2	-0.58605397
11	0x3da28258	0.07935017
12	0x3e34769c	0.17623371
13	0xbece82e7	-0.40334246
14	0x3e877e20	0.26463413
15	0x3e414a7d	0.18876071
16	0xbde13654	-0.109966904
17	0x3e03bd76	0.12865242
18	0xbe8cf83f	-0.27533147
19	0x3eb9ad07	0.36264822
20	0x3c71c19e	0.014755635
21	0xbedddf2c	-0.4333433
22	0xbdf83ee5	-0.12121371
23	0x3e4253c8	0.18977273
24	0x3eca4e86	0.39513034
25	0xbe9253af	-0.2857947
26	0xbe4fb8b7	-0.20285307
27	0xbeacde7d	-0.33763495
28	0x3e9f28b7	0.3108575
29	0x3e8f3f49	0.2797797
30	0xbf107904	-0.56434655
31	0xbebf6e24	-0.37388718
32	0xbdc20049	-0.09472711
33	0xbee3dad9	-0.44502905
34	0x3eb00d14	0.34384978
35	0xbef760ed	-0.48316136
36	0x3e398d3f	0.18120287
37	0xbe4faaf0	-0.20280051
38	0xbeb20e64	-0.34776604
39	0xbf0244c6	-0.5088619
40	0xbeb94d68	-0.3619187
41	0xbef4f1e8	-0.4784081
42	0xbe3bb784	-0.18331724
43	0x3e10e6d0	0.14150548
44	0xbd0e1b88	-0.034694225
45	0x3e58cf13	0.21172743
46	0x3dd7d030	0.105377555
47	0x3e85e576	0.26151627
48	0x3ea6e699	0.32597807
49	0x3da53aa0	0.080678225
50	0xbe370d1b	-0.17876093
51	0x3e0fb342	0.14033225
52	0xbf018309	-0.5059057
53	0xbeb705d1	-0.35746625
54	0x3ebcaf75	0.36852613
55	0xbe1ebc86	-0.15501603
56	0x3ded0398	0.11572951
57	0x3c12abb8	0.008952074
58	0x3ea04e70	0.31309843
59	0x3d89addc	0.06722614
60	0x3d7fb920	0.06243241
61	0xbdee70ac	-0.11642584
62	0xbee83ae7	-0.4535744
63	0xbd482af0	-0.048869073
64	0xbeb7bc17	-0.3588569
65	0xbf0ec66d	-0.55771524
66	0x3da9209b	0.08258172
67	0xbe8deb4d	-0.27718583
68	0xbe4f2576	-0.20229134
69	0xbddeaa2d	-0.10872302
70	0x3d8700ec	0.06591973
71	0xbe20d7b7	-0.15707289
72	0xbf22055c	-0.6328943
73	0xbdad35bc	-0.08457515
74	0xbe651175	-0.2236994
75	0xbda6c07c	-0.08142182
76	0xbe251497	-0.16121136
77	0x3e21968e	0.15780088
78	0x3d793c80	0.060848713
79	0x3e84c407	0.25930807
80	0x3dcf6438	0.10126537
81	0xbebd9f0d	-0.3703541
82	0x3e9382fd	0.28810874
83	0xbe6fc1d6	-0.23413786
84	0xbeda8953	-0.42682895
85	0xbed1dd61	-0.4098921
86	0xbc066a19	-0.008204007
87	0xbe781039	-0.24224938
88	0x3e930c9e	0.28720564
89	0xbe833ab5	-0.25630727
90	0x3e4af644	0.19820505
91	0x3ce37806	0.027767193
92	0xbd29fec6	-0.041502737
93	0x3d966695	0.07343785
94	0xbef23c5e	-0.47311682
95	0xbe517803	-0.20455937
96	0x3ebb88cd	0.36627808
97	0x3db49367	0.08817177
98	0xbc161d7d	-0.009162304
99	0x3b004c29	0.0019576645
100	0x3ea19522	0.31559092
101	0x3ecb9cef	0.39768168
102	0x3e87006a	0.26367503
103	0x3eb6cbf2	0.35702473
104	0x3ef51673	0.4786869
105	0x3f1338a0	0.5750828
106	0x3f01efdc	0.5075662
107	0x3c594980	0.013262153
108	0x3ce8a2a0	0.028397858
109	0xbba831f5	-0.0051329085
110	0x3e99035a	0.2988537
111	0xbd097de3	-0.03356732
112	0xbeba98c5	-0.3644468
113	0xbe5c8364	-0.21534497
114	0xbe18c333	-0.14918213
115	0x3d49dca5	0.04928269
116	0x3ead5216	0.3385169
117	0x3d219107	0.03944495
118	0xbd9a8fc0	-0.075469494
119	0xbea0b8cf	-0.31390998
120	0x3ea0eb9c	0.31429756
121	0x3e8aad01	0.27085117
122	0xbdb949c4	-0.09047273
123	0xbe5c788f	-0.21530364
124	0xbe0412f9	-0.12897862
125	0xbea7e709	-0.32793453
126	0x3d905c8e	0.070489034
127	0x3ef16d1c	0.47153556

arith.constant3 f4 [32, 32]
0	0x3daa70c3	0.08322289
1	0x3ed8efb0	0.42370367
2	0x3e97a14a	0.2961524
3	0x3ef56c55	0.47934213
4	0x3ecc0c54	0.39853156
5	0xbdc0d4c4	-0.09415582
6	0xbe090b56	-0.1338323
7	0x3e1c95fc	0.1529159
8	0x3e1a3c11	0.15061976
9	0xbce3d1ab	-0.027809938
10	0x3ee1d10a	0.44104797
11	0x3e12e6d4	0.14345866
12	0xbd828013	-0.063720845
13	0x3e97af0c	0.29625738
14	0x3d6d712b	0.057969254
15	0xbd163f48	-0.036681443
16	0xbe8a40d7	-0.27002594
17	0xbe9abe51	-0.30223325
18	0x3eb671d5	0.35633722
19	0x3edcc77d	0.43120947
20	0xbd0c0e5e	-0.03419339
21	0xbe93d9d0	-0.28877115
22	0xba8fe803	-0.0010979179
23	0x3d972be8	0.07381421
24	0x3e809aa2	0.25117975
25	0x3d46b377	0.048510995
26	0x3e8ad3ec	0.2711481
27	0x3e84dfeb	0.25952086
28	0x3d46d941	0.048547033
29	0x3ea87235	0.32899633
30	0x3e7b0e1a	0.24517098
31	0xbe4c4beb	-0.19950835
32	0x3e9cbdf4	0.30613673
33	0x3ecca5f8	0.39970374
34	0x3f09e11f	0.5385913
35	0x3e2d5eff	0.1693077
36	0x3f081b19	0.5316635
37	0xbe1fb128	-0.15594923
38	0x3e3ef56c	0.18648309
39	0x3e6b935a	0.23005429
40	0xbd83de83	-0.06438925
41	0x3da55117	0.08072107
42	0x3ed92d92	0.4241758
43	0xbdb735cc	-0.08945808
44	0x3d53d0ce	0.051712804
45	0x3dfec95d	0.12440751
46	0x3e834b4a	0.25643378
47	0xbd38a148	-0.045075685
48	0xbd2ee9fe	-0.04270362
49	0x3ce5c210	0.028046638
50	0x3d585843	0.052818548
51	0x3e6f0811	0.23342921
52	0x3e95ba38	0.29243636
53	0xbe839551	-0.25699857
54	0xbe45ee20	-0.19329119
55	0x3e7a8476	0.24464592
56	0xbdda5feb	-0.10662826
57	0xbdedc7cb	-0.11610373
58	0x3e8efd2f	0.2792754
59	0x3f052d9e	0.5202273
60	0x3e2f84d1	0.17140509
61	0x3f16d40e	0.5891732
62	0x3e817a7e	0.25288767
63	0x3dbb7034	0.091522604
64	0x3e32f315	0.17475541
65	0xbeaee0c3	-0.34155855
66	0x3dab5634	0.08366051
67	0xbe20d3b9	-0.15705766
68	0x3dfc4011	0.12316907
69	0x3e0d3a15	0.13791688
70	0xbd8a6166	-0.067568585
71	0xbeadb7b8	-0.3392923
72	0x3e85fa3b	0.26167473
73	0xbe3608e8	-0.17776835
74	0x3d46e4af	0.048557933
75	0xbe89104a	-0.2677024
76	0x3c0834c1	0.008313359
77	0xbde89629	-0.11356766
78	0x3d8f325e	0.06992029
79	0x3e2edc02	0.17076114
80	0xbe80e6a8	-0.25175977
81	0xbe65f8b4	-0.22458154
82	0x3e847ce9	0.2587655
83	0xbdda248e	-0.106515035
84	0x3de6c72c	0.11268458
85	0x3e7d19ba	0.24716845
86	0xbe089408	-0.1333772
87	0x3e6587be	0.22415063
88	0xbe84064d	-0.25786057
89	0x3e36d727	0.17855512
90	0x3e5f867f	0.2182865
91	0x3e3aa674	0.1822756
92	0x3d0488fb	0.032357197
93	0xbd0876dd	-0.03331648
94	0xbe8e500b	-0.27795443
95	0xbe81b4a0	-0.25333118
96	0x3ec6c508	0.38822198
97	0x3ee3f3a1	0.44521812
98	0x3e0fe727	0.14053021
99	0x3d74db62	0.059779532
100	0x3eb283c1	0.34866145
101	0xbe2ab9ad	-0.16672392
102	0x3d280580	0.04102087
103	0x3dd6d475	0.10489742
104	0xbda491ad	-0.08035598
105	0xbce9f52b	-0.028559288
106	0x3e9a7f7b	0.30175385
107	0x3ddee160	0.108828306
108	0x3e4061da	0.18787327
109	0x3e7143c7	0.23561011
110	0x3e389ccd	0.18028565
111	0xbe18a84f	-0.14907955
112	0x3e324fa8	0.17413199
113	0xbdaaf742	-0.08347942
114	0x3e88bd45	0.267069
115	0xbd59a990	-0.053140223
116	0xbe938828	-0.28814816
117	0xbe1a5dd8	-0.15074861
118	0x3c34a1eb	0.011024932
119	0xbe72ffaa	-0.2373034
120	0x3ee3643e	0.44412416
121	0x3ef06567	0.46952364
122	0x3df3ea32	0.119099036
123	0x3e21a26b	0.15784614
124	0x3e364772	0.17800692
125	0x3debb827	0.11509734
126	0x3ed644f9	0.41849497
127	0x3d9cd1a4	0.07657173
128	0x3eb84422	0.3598948
129	0x3e367582	0.17818263
130	0x3e3c5890	0.18393159
131	0x3d5b57e8	0.05355063
132	0x3ee78494	0.45218337
133	0x3e78b5e2	0.24288133
134	0x3e0dcfee	0.1384885
135	0x3eb9ba1c	0.36274803
136	0xbe21170e	-0.15731451
137	0x3c19e240	0.009392321
138	0x3eb40a94	0.3516432
139	0x3ae35800	0.0017344952
140	0x3dfe7a71	0.124256976
141	0x3f0ad463	0.54230326
142	0x3dc0fd1b	0.09423276
143	0xbe31db32	-0.17368773
144	0x3e48c0d2	0.19604805
145	0xbe20dacb	-0.15708463
146	0xbdac60c6	-0.084168956
147	0x3dcc927d	0.09988878
148	0xbcb3e9d7	-0.02196209
149	0x3e7d36cf	0.24727939
150	0x3e509f44	0.20373255
151	0x3e988fab	0.2979711
152	0x3e4e37ee	0.20138523
153	0x3e56559b	0.20931093
154	0xbcc47aaa	-0.023984272
155	0x3edca36c	0.4309343
156	0x3e8fb79b	0.28069767
157	0x3e29c427	0.16578732
158	0x3dd9a3c1	0.10626937
159	0xbe8102b1	-0.25197366
160	0x3e7b80d8	0.24560869
161	0x3f0badcd	0.54562074
162	0x3f21c59a	0.6319214
163	0x3f25d412	0.6477672
164	0x3ef0b6d6	0.47014493
165	0x3e8ecc60	0.278903
166	0xbe2b9144	-0.16754633
167	0xbd99ebfb	-0.07515713
168	0x3ddd954b	0.10819491
169	0xbe1042d5	-0.14087994
170	0x3eb466d1	0.35234693
171	0x3e346d3a	0.17619792
172	0xbda2e0b1	-0.07953013
173	0x3f02aa6c	0.51041293
174	0x3c819cdc	0.015821867
175	0xbe23b27c	-0.15986055
176	0xbdce39bc	-0.10069606
177	0xbe86cdcf	-0.26328894
178	0x3e7edab5	0.24888118
179	0xbd6f773c	-0.05846332
180	0x3e7573fc	0.23970026
181	0xbe65fe01	-0.22460176
182	0x3e2ca26e	0.16858837
183	0xbdabc7a8	-0.08387691
184	0xbdf11cff	-0.11773109
185	0xbd8dfa50	-0.06932509
186	0x3e921aff	0.2853622
187	0x3dffb025	0.12484769
188	0xbd0bbf57	-0.034118023
189	0x3f3b8e03	0.7326357
190	0x3f035897	0.5130705
191	0xbe316dfb	-0.1732711
192	0x3e5735d6	0.2101663
193	0xbd211828	-0.039329678
194	0x3e2c8956	0.16849265
195	0xbe8b80fa	-0.2724684
196	0x3d3cff00	0.046141624
197	0xbe2fdc0e	-0.17173788
198	0xbe8d9999	-0.27656248
199	0xbd0170c8	-0.031601697
200	0xbe82a77d	-0.25518408
201	0xbe9c6f1f	-0.3055353
202	0xbe7ddb43	-0.24790673
203	0x3e816d3f	0.2527866
204	0x3b627f00	0.0034560561
205	0x3b8dc000	0.0043258667
206	0x3b775b00	0.003774345
207	0x3e963d9d	0.29343882
208	0x3e876b5d	0.264491
209	0x3dff0748	0.12452561
210	0xbe861535	-0.26188055
211	0xbe8ec044	-0.27881062
212	0x3c50cf80	0.012744784
213	0x3e930eb3	0.28722152
214	0x3dbb3494	0.09140888
215	0x3dd951d8	0.106113136
216	0xbe44b607	-0.19210063
217	0x3ddb186c	0.106980175
218	0x3dd3b228	0.10336715
219	0x3e11d914	0.14242965
220	0x3e59b0ee	0.212589
221	0x3e9764cd	0.29569092
222	0xbe2a06a1	-0.16604091
223	0xbcb7a870	-0.022419184
224	0x3e9e3e04	0.3090669
225	0x3e835d38	0.25657058
226	0x3ec7018e	0.38868374
227	0x3debf01e	0.11520408
228	0x3e576887	0.21035968
229	0xbd8caad4	-0.068685204
230	0x3e064fa0	0.13116312
231	0x3ea8266d	0.32841817
232	0x3e980e37	0.29698345
233	0xbe383a04	-0.17990881
234	0x3e726851	0.23672606
235	0xbe959af6	-0.29219788
236	0x3e8981a8	0.26856732
237	0x3e0a939a	0.13532868
238	0xbe1f71fb	-0.15570824
239	0x3e8a4d85	0.27012268
240	0xbdfb11b4	-0.12259236
241	0xbe78d8c3	-0.24301438
242	0x3eafffb7	0.34374782
243	0x3d3c556d	0.045979906
244	0x3e9271bc	0.28602397
245	0xbd9b3cfb	-0.075799905
246	0xbb6b4782	-0.0035900776
247	0x3e92e747	0.28692076
248	0x3ddc3221	0.10751749
249	0x3e944bb7	0.28964016
250	0x3ecf33b6	0.4046914
251	0x3ee15d89	0.44016674
252	0x3e7b9ba8	0.24571097
253	0x3eebb693	0.4603773
254	0x3e59398c	0.21213359
255	0x3d4e9840	0.050438166

sequential_1/dense_1/MatMul f4 [32, 4]
0	0x3dc04567	0.093882374
1	0x3edfb96a	0.43696147
2	0x3ede672f	0.43438098
3	0x3ed3227e	0.41237253
4	0xbe597e1c	-0.21239513
5	0x3e7fe21d	0.24988599
6	0x3d66d404	0.056354538
7	0x3e084baa	0.13310114
8	0xbe2ac16c	-0.16675347
9	0xbe82a4ec	-0.2551645
10	0x3e48357f	0.19551657
11	0x3efb7438	0.49112105
12	0x3dda80d6	0.10669105
13	0xbe327de0	-0.1743083
14	0xbcf221aa	-0.029557068
15	0x3e9a2520	0.3010645
16	0x3e270ddd	0.16313882
17	0x3dd3412e	0.103151664
18	0x3ebebeed	0.3725504
19	0xbe5bf17e	-0.2147884
20	0xbd1e7c90	-0.03869301
21	0x3dbf6d00	0.09346962
22	0x3e38919f	0.180243
23	0x3e77f0fa	0.24213019
24	0xbe5a83de	-0.21339366
25	0xbe932190	-0.28736544
26	0xbdbaca94	-0.0912067
27	0x3df2d730	0.1185745
28	0x3ec3ea51	0.38264707
29	0x3edf87e6	0.4365837
30	0xbeb12861	-0.3460112
31	0x3c66243e	0.014046727
32	0xbdb1396e	-0.08653532
33	0x3e58bd23	0.211659
34	0x3d4e9386	0.050433658
35	0x3e9c67c2	0.3054791
36	0xbcbc65f9	-0.022997843
37	0x3e5fe43b	0.21864407
38	0xbe808148	-0.25098634
39	0x3da5489e	0.08070491
40	0x3b7cc834	0.0038571479
41	0x3d374e98	0.044752687
42	0x3e9f2c06	0.31088275
43	0x3ead0929	0.3379605
44	0xbe0bd752	-0.13656357
45	0x3d0866b0	0.033301055
46	0xbe9c5f66	-0.30541533
47	0xbe3dcff5	-0.1853636
48	0xbed7012c	-0.41993082
49	0x3db2df41	0.087339886
50	0x3e6f2c1b	0.23356669
51	0x3e8bf226	0.27333182
52	0xbe3f740c	-0.18696612
53	0x3ead21c0	0.33814812
54	0x3e7f0f30	0.24908137
55	0xbe060304	-0.13087088
56	0xbe327310	-0.17426705
57	0x3dcb01c6	0.09912448
58	0x3d9f3e41	0.07775546
59	0x3eb3beae	0.35106415
60	0xbe445d4c	-0.19176215
61	0xbdb742fc	-0.08948323
62	0x3d0bd388	0.03413728
63	0xbe13f2ac	-0.1444804
64	0xbe81b5c4	-0.2533399
65	0x3d88c2f2	0.06677808
66	0xbeceb18c	-0.40369833
67	0x3e80c698	0.25151515
68	0xbd6d6048	-0.05795315
69	0xbe9fb7ce	-0.3119492
70	0x3e10742c	0.14106816
71	0xbea58847	-0.32330534
72	0xbe4fb0ce	-0.2028229
73	0x3ee5fcce	0.44919437
74	0x3e3cfcb6	0.18455777
75	0xbd388557	-0.045049038
76	0x3db7a394	0.08966747
77	0xbc5dd7ae	-0.013540192
78	0xbd32d570	-0.04366058
79	0x3ec62b54	0.38704932
80	0xbed0d415	-0.40786806
81	0x3e296eef	0.16546224
82	0xbebe2ac1	-0.37141994
83	0x3d9246bf	0.071424
84	0xbebdf806	-0.3710329
85	0x3e879451	0.26480344
86	0xbed01d3a	-0.40647298
87	0xbecfbcb5	-0.4057366
88	0x3eac34fc	0.33634174
89	0xbdea90d4	-0.11453405
90	0x3debbde7	0.115108304
91	0xbe83faca	-0.25777274
92	0xbdbe0558	-0.09278363
93	0xbea8d90d	-0.32978097
94	0xbe381e90	-0.17980409
95	0xbea11737	-0.31463024
96	0x3e8f910a	0.28040344
97	0x3ec9618d	0.39332238
98	0xbd516829	-0.051124725
99	0x3e78ef6b	0.2431008
100	0x3c971711	0.018443616
101	0x3e1ecc8a	0.15507713
102	0x3ea19356	0.3155772
103	0x3e56abbf	0.20963953
104	0x3dbd35c8	0.092387736
105	0x3d188058	0.037231773
106	0x3ee01aea	0.43770534
107	0xbd5ad3d0	-0.053424656
108	0x3e4bcaea	0.19901624
109	0xbe3c1602	-0.1836777
110	0x3e9111af	0.28333804
111	0x3e0cf2bc	0.13764471
112	0xb936073f	-0.00017359572
113	0xbe9fbf7c	-0.31200778
114	0x3e58471c	0.21120876
115	0x3da14203	0.07873919
116	0x3e48755b	0.19576018
117	0x3ef9c559	0.48783377
118	0x3c97c01b	0.01852422
119	0x3dc3e16a	0.09564479
120	0xbdfed547	-0.12443023
121	0x3eb66a41	0.3562794
122	0xbe0c0608	-0.13674176
123	0x3ec6d61d	0.3883523
124	0x3d29c598	0.041448206
125	0xbec025d7	-0.3752887
126	0x3dcccf88	0.10000521
127	0xbbce4480	-0.006294787

sequential_1/dense_1/Relu;sequential_1/dense_1/BiasAdd f4 [32]
0	0x3e5a66e5	0.21328314
1	0x3e7ef6e8	0.24898875
2	0x3e7de490	0.24794221
3	0x3ea1aab4	0.3157555
4	0x3e524e55	0.20537694
5	0xbd09d4dc	-0.033650264
6	0x00000000	0.0
7	0x3e31a684	0.17348677
8	0x3e466153	0.19373064
9	0xbcf76128	-0.030197695
10	0x3e534c69	0.20634617
11	0x00000000	0.0
12	0xbcf3287e	-0.029682394
13	0x3e8034b4	0.2504021
14	0xbc933634	-0.017970182
15	0x00000000	0.0
16	0xbc4d8f50	-0.012546375
17	0x00000000	0.0
18	0x3e4d1ec1	0.20031263
19	0x3e0b6c1e	0.13615462
20	0xbbe71271	-0.007051759
21	0xbc167d06	-0.009185081
22	0xbd0a19c6	-0.033715986
23	0x00000000	0.0
24	0x3e485d8c	0.19566935
25	0x3e62ab3f	0.22135638
26	0x3e4e1d6c	0.20128411
27	0x3e89389c	0.26801002
28	0xbc366816	-0.011133214
29	0x3eae49b6	0.34040612
30	0x3e51c2f0	0.20484519
31	0x00000000	0.0
